…
    'lr': 0.001,
    'lr_decay_start': 10,
    'lr_gamma': 0.5,
    'lr_step': 0,
    'max_grad_norm': 100000000.0,
    'max_length': 100,
    'model_fn': './model_koen.pth',
    'n_epochs': 30,
    'n_layers': 4,
    'n_splits': 8,
    'off_autocast': False,
    'rl_lr': 0.01,
    'rl_n_epochs': 0,
    'rl_n_gram': 6,
    'rl_n_samples': 1,
    'rl_reward': 'gleu',
    'train': './data/corpus.shuf.train.tok.bpe',
    'use_adam': True,
    'use_radam': False,
    'use_transformer': True,
    'valid': './data/corpus.shuf.valid.tok.bpe',
    'verbose': 2,
    'word_vec_size': 512}
Transformer(
  (emb_enc): Embedding(5834, 768)
  (emb_dec): Embedding(3556, 768)
  (emb_dropout): Dropout(p=0.2, inplace=False)
  (encoder): MySequential(
    (0): EncoderBlock(
      (attn): MultiHead(
        (Q_linear): Linear(in_features=768, out_features=768, bias=False)
        (K_linear): Linear(in_features=768, out_features=768, bias=False)
        (V_linear): Linear(in_features=768, out_features=768, bias=False)
        (linear): Linear(in_features=768, out_features=768, bias=False)
        (attn): Attention(
          (softmax): Softmax(dim=-1)
        )
      )
      (attn_norm): LayerNorm((768,), eps=1e-05, elementwise_affine=True)
      (attn_dropout): Dropout(p=0.2, inplace=False)
      (fc): Sequential(
        (0): Linear(in_features=768, out_features=3072, bias=True)
        (1): ReLU()
        (2): Linear(in_features=3072, out_features=768, bias=True)
      )
      (fc_norm): LayerNorm((768,), eps=1e-05, elementwise_affine=True)
      (fc_dropout): Dropout(p=0.2, inplace=False)
    )
    (1): EncoderBlock(
      (attn): MultiHead(
        (Q_linear): Linear(in_features=768, out_features=768, bias=False)
        (K_linear): Linear(in_features=768, out_features=768, bias=False)
        (V_linear): Linear(in_features=768, out_features=768, bias=False)
        (linear): Linear(in_features=768, out_features=768, bias=False)
        (attn): Attention(
          (softmax): Softmax(dim=-1)
        )
      )
      (attn_norm): LayerNorm((768,), eps=1e-05, elementwise_affine=True)
      (attn_dropout): Dropout(p=0.2, inplace=False)
      (fc): Sequential(
        (0): Linear(in_features=768, out_features=3072, bias=True)
        (1): ReLU()
        (2): Linear(in_features=3072, out_features=768, bias=True)
      )
      (fc_norm): LayerNorm((768,), eps=1e-05, elementwise_affine=True)
      (fc_dropout): Dropout(p=0.2, inplace=False)
    )
    (2): EncoderBlock(
      (attn): MultiHead(
        (Q_linear): Linear(in_features=768, out_features=768, bias=False)
        (K_linear): Linear(in_features=768, out_features=768, bias=False)
        (V_linear): Linear(in_features=768, out_features=768, bias=False)
        (linear): Linear(in_features=768, out_features=768, bias=False)
        (attn): Attention(
          (softmax): Softmax(dim=-1)
        )
      )
      (attn_norm): LayerNorm((768,), eps=1e-05, elementwise_affine=True)
      (attn_dropout): Dropout(p=0.2, inplace=False)
      (fc): Sequential(
        (0): Linear(in_features=768, out_features=3072, bias=True)
        (1): ReLU()
        (2): Linear(in_features=3072, out_features=768, bias=True)
      )
      (fc_norm): LayerNorm((768,), eps=1e-05, elementwise_affine=True)
      (fc_dropout): Dropout(p=0.2, inplace=False)
    )
    (3): EncoderBlock(
      (attn): MultiHead(
        (Q_linear): Linear(in_features=768, out_features=768, bias=False)
        (K_linear): Linear(in_features=768, out_features=768, bias=False)
        (V_linear): Linear(in_features=768, out_features=768, bias=False)
        (linear): Linear(in_features=768, out_features=768, bias=False)
        (attn): Attention(
          (softmax): Softmax(dim=-1)
        )
      )
      (attn_norm): LayerNorm((768,), eps=1e-05, elementwise_affine=True)
      (attn_dropout): Dropout(p=0.2, inplace=False)
      (fc): Sequential(
        (0): Linear(in_features=768, out_features=3072, bias=True)
        (1): ReLU()
        (2): Linear(in_features=3072, out_features=768, bias=True)
      )
      (fc_norm): LayerNorm((768,), eps=1e-05, elementwise_affine=True)
      (fc_dropout): Dropout(p=0.2, inplace=False)
    )
  )
  (decoder): MySequential(
    (0): DecoderBlock(
      (masked_attn): MultiHead(
        (Q_linear): Linear(in_features=768, out_features=768, bias=False)
        (K_linear): Linear(in_features=768, out_features=768, bias=False)
        (V_linear): Linear(in_features=768, out_features=768, bias=False)
        (linear): Linear(in_features=768, out_features=768, bias=False)
        (attn): Attention(
          (softmax): Softmax(dim=-1)
        )
      )
      (masked_attn_norm): LayerNorm((768,), eps=1e-05, elementwise_affine=True)
      (masked_attn_dropout): Dropout(p=0.2, inplace=False)
      (attn): MultiHead(
        (Q_linear): Linear(in_features=768, out_features=768, bias=False)
        (K_linear): Linear(in_features=768, out_features=768, bias=False)
        (V_linear): Linear(in_features=768, out_features=768, bias=False)
        (linear): Linear(in_features=768, out_features=768, bias=False)
        (attn): Attention(
          (softmax): Softmax(dim=-1)
        )
      )
      (attn_norm): LayerNorm((768,), eps=1e-05, elementwise_affine=True)
      (attn_dropout): Dropout(p=0.2, inplace=False)
      (fc): Sequential(
        (0): Linear(in_features=768, out_features=3072, bias=True)
        (1): ReLU()
        (2): Linear(in_features=3072, out_features=768, bias=True)
      )
      (fc_norm): LayerNorm((768,), eps=1e-05, elementwise_affine=True)
      (fc_dropout): Dropout(p=0.2, inplace=False)
    )
    (1): DecoderBlock(
      (masked_attn): MultiHead(
        (Q_linear): Linear(in_features=768, out_features=768, bias=False)
        (K_linear): Linear(in_features=768, out_features=768, bias=False)
        (V_linear): Linear(in_features=768, out_features=768, bias=False)
        (linear): Linear(in_features=768, out_features=768, bias=False)
        (attn): Attention(
          (softmax): Softmax(dim=-1)
        )
      )
      (masked_attn_norm): LayerNorm((768,), eps=1e-05, elementwise_affine=True)
      (masked_attn_dropout): Dropout(p=0.2, inplace=False)
      (attn): MultiHead(
        (Q_linear): Linear(in_features=768, out_features=768, bias=False)
        (K_linear): Linear(in_features=768, out_features=768, bias=False)
        (V_linear): Linear(in_features=768, out_features=768, bias=False)
        (linear): Linear(in_features=768, out_features=768, bias=False)
        (attn): Attention(
          (softmax): Softmax(dim=-1)
        )
      )
      (attn_norm): LayerNorm((768,), eps=1e-05, elementwise_affine=True)
      (attn_dropout): Dropout(p=0.2, inplace=False)
      (fc): Sequential(
        (0): Linear(in_features=768, out_features=3072, bias=True)
        (1): ReLU()
        (2): Linear(in_features=3072, out_features=768, bias=True)
      )
      (fc_norm): LayerNorm((768,), eps=1e-05, elementwise_affine=True)
      (fc_dropout): Dropout(p=0.2, inplace=False)
    )
    (2): DecoderBlock(
      (masked_attn): MultiHead(
        (Q_linear): Linear(in_features=768, out_features=768, bias=False)
        (K_linear): Linear(in_features=768, out_features=768, bias=False)
        (V_linear): Linear(in_features=768, out_features=768, bias=False)
        (linear): Linear(in_features=768, out_features=768, bias=False)
        (attn): Attention(
          (softmax): Softmax(dim=-1)
        )
      )
      (masked_attn_norm): LayerNorm((768,), eps=1e-05, elementwise_affine=True)
      (masked_attn_dropout): Dropout(p=0.2, inplace=False)
      (attn): MultiHead(
        (Q_linear): Linear(in_features=768, out_features=768, bias=False)
        (K_linear): Linear(in_features=768, out_features=768, bias=False)
        (V_linear): Linear(in_features=768, out_features=768, bias=False)
        (linear): Linear(in_features=768, out_features=768, bias=False)
        (attn): Attention(
          (softmax): Softmax(dim=-1)
        )
      )
      (attn_norm): LayerNorm((768,), eps=1e-05, elementwise_affine=True)
      (attn_dropout): Dropout(p=0.2, inplace=False)
      (fc): Sequential(
        (0): Linear(in_features=768, out_features=3072, bias=True)
        (1): ReLU()
        (2): Linear(in_features=3072, out_features=768, bias=True)
      )
      (fc_norm): LayerNorm((768,), eps=1e-05, elementwise_affine=True)
      (fc_dropout): Dropout(p=0.2, inplace=False)
    )
    (3): DecoderBlock(
      (masked_attn): MultiHead(
        (Q_linear): Linear(in_features=768, out_features=768, bias=False)
        (K_linear): Linear(in_features=768, out_features=768, bias=False)
        (V_linear): Linear(in_features=768, out_features=768, bias=False)
        (linear): Linear(in_features=768, out_features=768, bias=False)
        (attn): Attention(
          (softmax): Softmax(dim=-1)
        )
      )
      (masked_attn_norm): LayerNorm((768,), eps=1e-05, elementwise_affine=True)
      (masked_attn_dropout): Dropout(p=0.2, inplace=False)
      (attn): MultiHead(
        (Q_linear): Linear(in_features=768, out_features=768, bias=False)
        (K_linear): Linear(in_features=768, out_features=768, bias=False)
        (V_linear): Linear(in_features=768, out_features=768, bias=False)
        (linear): Linear(in_features=768, out_features=768, bias=False)
        (attn): Attention(
          (softmax): Softmax(dim=-1)
        )
      )
      (attn_norm): LayerNorm((768,), eps=1e-05, elementwise_affine=True)
      (attn_dropout): Dropout(p=0.2, inplace=False)
      (fc): Sequential(
        (0): Linear(in_features=768, out_features=3072, bias=True)
        (1): ReLU()
        (2): Linear(in_features=3072, out_features=768, bias=True)
      )
      (fc_norm): LayerNorm((768,), eps=1e-05, elementwise_affine=True)
      (fc_dropout): Dropout(p=0.2, inplace=False)
    )
  )
  (generator): Sequential(
    (0): LayerNorm((768,), eps=1e-05, elementwise_affine=True)
    (1): Linear(in_features=768, out_features=3556, bias=True)
    (2): LogSoftmax(dim=-1)
  )
)/home/ubuntu/.local/lib/python3.10/site-packages/torch/cuda/amp/grad_scaler.py:118: UserWarning: torch.cuda.amp.GradScaler is enabled, but CUDA is not available.  Disabling.
  warnings.warn("torch.cuda.amp.GradScaler is enabled, but CUDA is not available.  Disabling.")
/home/ubuntu/.local/lib/python3.10/site-packages/torch/amp/autocast_mode.py:202: UserWarning: User provided device_type of 'cuda', but CUDA is not available. Disabling
…
